homework2/homework2_result/models/breast-cancer.csv_logreg.pt (torch, 2413 bytes, 2 tensors)

linear.weight f4 [2, 30]
-0.21488312 -0.17465752 -0.22080763 -0.24905501 -0.10976026 0.27062917 -0.45963523 -0.64895403
0.09091621 0.24652147 -0.89678407 0.23432863 -0.45030326 -0.63608533 -0.13857141 0.5822486
0.049450267 -0.3453279 0.2815757 0.36955822 -0.4637837 -0.97725105 -0.36460033 -0.4340387
-0.46127218 -0.0101271495 -0.56600714 -0.41892523 -0.664166 -0.22719978 0.31310347 0.18705557
0.24367228 0.26172897 0.106128134 -0.38960257 0.65162146 0.6625543 -0.078549765 -0.44598114
0.85041445 -0.16546537 0.5170575 0.6673707 0.18507344 -0.46086553 0.10072618 0.18064716
-0.1488073 -0.5007418 0.49816442 0.84013915 0.45745653 0.73355097 0.52764314 0.03449251
0.36048442 0.5263812 0.55921966 0.48077574
00000000: 520a 5cbe 6cd9 32be 651b 62be 4708 7fbe
00000010: fdc9 e0bd e88f 8a3e 4f55 ebbe da21 26bf
00000020: 4732 ba3d 2070 7c3e a493 65bf d8f3 6f3e
00000030: 268e e6be 7dd6 22bf aae5 0dbe 3f0e 153f
00000040: 5d8c 4a3d d2ce b0be b12a 903e bc36 bd3e
00000050: 0f75 edbe 202d 7abf e5ac babe 523a debe
00000060: de2b ecbe 58ec 25bc d8e5 10bf 5e7d d6be
00000070: c806 2abf 0fa7 68be 194f a03e 7f8b 3f3e
00000080: 3a85 793e 5701 863e b559 d93d fd79 c7be
00000090: aad0 263f 299d 293f b3de a0bd a457 e4be
000000a0: c3b4 593f c16f 29be e15d 043f ced8 2a3f
000000b0: e483 3d3e 91f6 ebbe 8749 ce3d 92fb 383e
000000c0: f160 18be 9d30 00bf 680f ff3e 5c13 573f
000000d0: be37 ea3e ffc9 3b3f 9f13 073f 0548 0d3d
000000e0: 6a91 b83e ebc0 063f 0529 0f3f 3d28 f63e

linear.bias f4 [2]
0.12971216 -0.07049889
00000000: 44d3 043e b961 90bd
